model/keypoint_classifier/keypoint_classifier.tflite (tflite, 6572 bytes, 6 tensors)

sequential_1/dense_5/BiasAdd/ReadVariableOp f4 [4]
0	0xbe84d182	-0.25941092
1	0xbe4bbda0	-0.19896555
2	0x3f0a3913	0.5399334
3	0xbde343dc	-0.110969275

sequential_1/dense_4/BiasAdd/ReadVariableOp f4 [10]
0	0x3ea09deb	0.31370482
1	0x3f1cf63b	0.6131322
2	0x3e8e5038	0.27795577
3	0x3e532608	0.20619977
4	0x3d080800	0.033210754
5	0xbec16987	-0.37775823
6	0x3f5e2b15	0.8678449
7	0xbe4f689b	-0.20254748
8	0x3e05ceaf	0.13067125
9	0x3e912c0e	0.28353924

sequential_1/dense_3/BiasAdd/ReadVariableOp f4 [20]
0	0xbef0ee83	-0.4705697
1	0xbe927fdd	-0.28613177
2	0xbf6b9cfe	-0.92036426
3	0xbefb608f	-0.49097106
4	0xbf296a31	-0.6617766
5	0xbf1b1632	-0.6058074
6	0xbf09955a	-0.5374352
7	0xbe059ffe	-0.13049313
8	0xbf5bea29	-0.85904175
9	0xbf0dd248	-0.5539899
10	0xbed6b4b3	-0.41934738
11	0xbf43dbbb	-0.7650716
12	0xbf1f5c6e	-0.6225041
13	0xbebea117	-0.37232277
14	0xbf4379d9	-0.763578
15	0xbf1047ac	-0.5635936
16	0xbf472200	-0.77786255
17	0xbef8b2cc	-0.4857391
18	0xbe031c89	-0.12803854
19	0xbf0e9d2b	-0.5570857

sequential_1/dense_3/MatMul f4 [20, 42]
0	0xbe392316	-0.1807979
1	0x3db1fe90	0.08691132
2	0xbded3133	-0.1158165
3	0x3ec0b5a7	0.3763859
4	0x3e14addf	0.14519452
5	0x3e7e89f4	0.24857312
6	0x3e74239f	0.23841713
7	0x3e815579	0.25260523
8	0x3e932323	0.28737745
9	0x3e3984d1	0.18117072
10	0x3d5cef56	0.053939186
11	0x3be6e1fe	0.0070459833
12	0xbb878f17	-0.0041369307
13	0x3d08ac26	0.0333673
14	0xbc296946	-0.010340041
15	0x3d0d54c7	0.034504678
16	0xbc60425f	-0.013687699
17	0x3d434ad9	0.047678802
18	0x3d74f28b	0.05980162
19	0x3bab40b6	0.00522622
20	0xbd05225f	-0.032503482
21	0x3d631be5	0.055446524
22	0xbe284af8	-0.16434848
23	0x3d82ef0e	0.06393252
24	0xbe48b362	-0.19599679
25	0xbeeb0094	-0.4589888
26	0x3e6b4a44	0.22977549
27	0xbd1c6723	-0.038184296
28	0xbbdb1416	-0.006685744
29	0xbb9f88dd	-0.0048686103
30	0xbe5dfd0a	-0.21678558
31	0xbee1a298	-0.44069362
32	0xbeefdba3	-0.46847257
33	0xbed2e97b	-0.41193756
34	0x3e6bf0e5	0.23041113
35	0x3d8119e1	0.06303764
36	0x3d8fd649	0.070232935
37	0x3dc724ba	0.09723802
38	0xbed49081	-0.41516498
39	0xbe1758e8	-0.14780009
40	0xbea39050	-0.3194604
41	0xbee0a189	-0.43873242
42	0xbd0d4d18	-0.03449735
43	0xbdf2a326	-0.11847524
44	0x3d8dcb55	0.06923548
45	0x3e8b00e4	0.27149117
46	0xbd830b3d	-0.06398628
47	0x3cfca2aa	0.030839283
48	0xbe1ff6ac	-0.15621442
49	0xb968db7e	-0.00022207011
50	0xbe9cec02	-0.3064881
51	0x3db2d958	0.08732861
52	0x3d10f741	0.03539205
53	0x3dd4a699	0.103833385
54	0x3b887008	0.004163746
55	0x3d7ccad2	0.061716862
56	0xbbcece86	-0.0063112406
57	0xbba09286	-0.0049002795
58	0x3cb1a4a4	0.021684952
59	0xbdd66d5e	-0.10470079
60	0x3d9354f2	0.071939364
61	0x3e0838ca	0.13302913
62	0xbd2c2f0a	-0.042037047
63	0x3d1707e7	0.03687277
64	0x3e32073c	0.17385572
65	0xbbd26615	-0.0064208605
66	0x3eb12b77	0.34603474
67	0x3ca712d9	0.02039473
68	0xbd1eb3da	-0.03874574
69	0x3e19e676	0.1502932
70	0xbd89e66f	-0.06733405
71	0x3d3d8b5a	0.046275474
72	0x3e02ff8f	0.127928
73	0x3d1e5c9e	0.038662545
74	0x3f015fd8	0.5053687
75	0xbf415a7d	-0.755287
76	0xbdd5fb21	-0.1044829
77	0x3e2bffc8	0.16796792
78	0xbe3ea4f0	-0.18617606
79	0x3d5c5653	0.053793263
80	0x3d1208ac	0.0356528
81	0x3d85e842	0.0653844
82	0x3ea334bb	0.31876168
83	0xbca59808	-0.020214096
84	0x3d8f23d0	0.069892526
85	0xbe62ac42	-0.22136024
86	0xbf74aebb	-0.9557912
87	0x3c887cee	0.016661134
88	0xbec7caa4	-0.3902179
89	0xbea2a24c	-0.31764448
90	0xbee3ac59	-0.44467428
91	0xbde4a3db	-0.111640655
92	0xbede764c	-0.43449628
93	0xbf25e999	-0.64809567
94	0xbebb8b30	-0.3662963
95	0xbbb54e5d	-0.0055330233
96	0xbd2dbe19	-0.04241762
97	0x3cc96e16	0.024588626
98	0x3e6481a6	0.22315082
99	0x3e50cb9f	0.20390175
100	0x3e86ae15	0.2630469
101	0x3e4666c1	0.19375135
102	0xbed0907e	-0.4073524
103	0x3d4f4059	0.050598476
104	0xbdee19e9	-0.11626036
105	0xbe49e435	-0.1971596
106	0x3da4695a	0.08027907
107	0xbe4083d6	-0.18800291
108	0xbd07c78f	-0.0331493
109	0xbd30bfc9	-0.04315165
110	0xbe960d58	-0.29307055
111	0x3d5660e3	0.052338492
112	0xbd5358aa	-0.05159823
113	0xbe2587e8	-0.16165125
114	0x3ddf4c39	0.1090321
115	0xbdf746e9	-0.12074072
116	0xbcea660c	-0.028613113
117	0xbcc9c7f1	-0.024631472
118	0xbdc4a01c	-0.09600851
119	0xbd79baaa	-0.060969032
120	0xbe455a76	-0.1927279
121	0xbe107dfe	-0.14110562
122	0x3cb16cae	0.021658268
123	0xbda91c39	-0.08257336
124	0xbdaa8470	-0.08326042
125	0x3d6490f0	0.055802286
126	0xbda5bee6	-0.080930516
127	0xbb351880	-0.0027633011
128	0xbe814760	-0.25249767
129	0xbe85eff5	-0.26159635
130	0xbddab452	-0.106789246
131	0x3e924988	0.28571725
132	0xbebb777c	-0.36614597
133	0xbd49babb	-0.049250346
134	0xbeb7f81e	-0.35931486
135	0x3d989630	0.07450521
136	0x3eb85811	0.3600469
137	0x3e1b2529	0.15150894
138	0x3d8096f0	0.06278789
139	0x3def3918	0.11680812
140	0xbd166631	-0.03671855
141	0x3e3acd37	0.18242346
142	0xbdc5e553	-0.09662881
143	0x3e242fcb	0.16033857
144	0x3e989808	0.2980349
145	0x3e111254	0.14167148
146	0x3d9b24d9	0.075753875
147	0x3cda7a9f	0.026669798
148	0x3e2ccc36	0.16874775
149	0xbe875a50	-0.2643609
150	0x3963a20b	0.00021708773
151	0xbe867078	-0.26257682
152	0x3dbb666d	0.091503955
153	0x3d91b2a9	0.07114155
154	0x3cc781c8	0.024353877
155	0xbc7fad80	-0.0156053305
156	0x3e03131f	0.12800263
157	0xbeb47846	-0.3524801
158	0x3eec9e58	0.46214557
159	0xbeef5435	-0.46743932
160	0xbd954608	-0.07288748
161	0xbad45943	-0.0016200918
162	0xbdea22ca	-0.11432417
163	0xbc50d3e8	-0.012745835
164	0xbdc56db9	-0.096400686
165	0xbeb8c3b6	-0.36086816
166	0x3e8d8ae7	0.27645037
167	0xbf3a7d78	-0.728477
168	0x3e9047a4	0.28179657
169	0x3e910b9a	0.28329164
170	0x3f231ee3	0.63719004
171	0xbe6c42a1	-0.23072292
172	0x3ed50c68	0.41611028
173	0xbf0c0c3f	-0.54706186
174	0x3ea7ad32	0.32749325
175	0xbee11026	-0.43957633
176	0x3f13fe44	0.57809854
177	0xbeb2aa0e	-0.34895366
178	0xbe50ffbc	-0.20410055
179	0xbe15fc8c	-0.1464712
180	0xbdbc927a	-0.09207626
181	0xbdee3103	-0.11630442
182	0xbd5c05ed	-0.05371659
183	0x3dc2f8e7	0.095201306
184	0xbe1aa770	-0.15102935
185	0x3e3c4b4b	0.18388097
186	0xbe150459	-0.1455244
187	0x3d537837	0.051628318
188	0x3e07ac33	0.13249283
189	0xbdced937	-0.10100024
190	0x3eb05d81	0.34446338
191	0xbe3d8a1e	-0.18509719
192	0x3e98bd6a	0.2983201
193	0xbe660840	-0.22464085
194	0xbd473602	-0.04863549
195	0x3d4e0f87	0.050307777
196	0x3cd9154d	0.026499415
197	0xbd7b6954	-0.061379746
198	0x3e5ab95f	0.21359776
199	0xbe264876	-0.16238579
200	0x3e8e2475	0.2776219
201	0xbdd958ed	-0.10612664
202	0x3bbfcebc	0.005853502
203	0x3e000ecc	0.12505645
204	0x3be9787a	0.0071249576
205	0x3e084adf	0.13309811
206	0xbc38d86c	-0.011282068
207	0x3d8db8f4	0.06920043
208	0xbee043ac	-0.4380163
209	0x3d28ca09	0.0412083
210	0xbe95b9fa	-0.2924345
211	0xbddbeeb6	-0.1073889
212	0x3f765a3a	0.96231425
213	0xbe8e73bd	-0.27822676
214	0x3eda6f99	0.42663267
215	0xbe8b38a1	-0.27191642
216	0x3e749766	0.23885879
217	0x3d4d4ae0	0.050120234
218	0x3de17f91	0.110106595
219	0xbed88b7e	-0.42293924
220	0x3eea68de	0.45783132
221	0x3bd06ad9	0.0063603935
222	0x3d8683d6	0.065681145
223	0x3dc57016	0.09640519
224	0xbe8dbe98	-0.27684474
225	0x3e07026e	0.1318452
226	0xbec3a01c	-0.3820809
227	0x3e18e28b	0.1493017
228	0x3ebe0ab1	0.37117532
229	0xbe50c6c2	-0.2038832
230	0x3e655c34	0.22398454
231	0x3cb4f097	0.022087378
232	0xbe505776	-0.20345864
233	0x3dad6f62	0.0846851
234	0xbe221d1f	-0.15831421
235	0x3da16d35	0.07882158
236	0x3e6afd44	0.22948176
237	0xbd9626eb	-0.07331642
238	0x3e6f08af	0.23343156
239	0xbe6ba0f2	-0.23010615
240	0xbd96ace6	-0.073571965
241	0x3d84061b	0.06446477
242	0xbcb0205f	-0.02149981
243	0x3d81f6ff	0.06345939
244	0x3eb44295	0.35207048
245	0xbdf2d9d0	-0.11857951
246	0x3e44d0af	0.19220231
247	0xbdd1d74f	-0.10246145
248	0x3dcbc83e	0.099503025
249	0xbdb03e97	-0.08605688
250	0xbc9467e1	-0.01811594
251	0x3cd90a1f	0.026494084
252	0xbe7bcaf6	-0.24589142
253	0x3e6b05c0	0.22951412
254	0xbe9642a8	-0.2934773
255	0xbd2b715e	-0.041856162

sequential_1/dense_4/MatMul f4 [10, 20]
0	0xbd0a9f6f	-0.033843454
1	0xbe7a0307	-0.24415217
2	0x3ee8232d	0.45339337
3	0xbd9167a8	-0.07099849
4	0x3d47a900	0.048745155
5	0x3f2c4770	0.67296505
6	0x3ee6583c	0.44989192
7	0x3e94b66e	0.29045433
8	0x3f3ae3f5	0.73004085
9	0x3eae4191	0.34034398
10	0x3dbad669	0.09122927
11	0x3a8fb756	0.0010964673
12	0x3f489935	0.78358775
13	0x3e8fad85	0.28062072
14	0x3f02bb71	0.5106726
15	0x3f17a9ff	0.5924377
16	0x3f3a4e5f	0.72775835
17	0xbdc82190	-0.097720265
18	0x3e21b31d	0.15790983
19	0x3e4452b7	0.19172178
20	0xbd84ae72	-0.06478585
21	0x3efdf49b	0.49600682
22	0xbe5c3374	-0.21504003
23	0x3d83e511	0.06440175
24	0x3efe6383	0.49685296
25	0xbd9ca42c	-0.07648501
26	0xbdc403c4	-0.09571031
27	0x3f9bf5e1	1.2184411
28	0xbf108ba2	-0.5646306
29	0x3f0d9b2f	0.55314916
30	0x3d3932f2	0.0452146
31	0xbeac55c0	-0.33659172
32	0xbd87bd8c	-0.0662795
33	0x3ee8de70	0.45482206
34	0x3e95f047	0.2928488
35	0x3e8a0115	0.2695395
36	0xbed3a74d	-0.41338578
37	0xbe875aff	-0.26436612
38	0x3f471834	0.77771306
39	0x3ed86865	0.42267147
40	0x3f1993f0	0.5999136
41	0x3f70f214	0.9411938
42	0x3ee2a9cb	0.44270167
43	0x3e1f893a	0.15579692
44	0xbcb89ea5	-0.022536585
45	0xbd729df3	-0.059232663
46	0x3d97dd38	0.07415241
47	0x3d97b73d	0.07407997
48	0xbf13f8cb	-0.578015
49	0x3f22f56b	0.6365573
50	0x3f153217	0.58279556
51	0x3f126afc	0.57194495
52	0xbe4a3f48	-0.19750702
53	0xbee3d15a	-0.4449566
54	0x3c0cf6c0	0.008603752
55	0x3c6f6511	0.014611498
56	0x3c41d5d7	0.011830769
57	0x3f17e2e9	0.5933061
58	0xbf2ab4e8	-0.6668229
59	0x3ea74ac0	0.32674217
60	0x3e270b32	0.16312864
61	0xbe279bb8	-0.16367996
62	0xbf989810	-1.1921406
63	0xbdaf9ba5	-0.08574609
64	0x3edee3f2	0.43533283
65	0x3e3d71ab	0.18500392
66	0x3ddd0cbc	0.107934445
67	0x3e4fa509	0.202778
68	0x3eefd75a	0.46843988
69	0x3ec5c6b4	0.3862816
70	0x3d6d28d0	0.05790025
71	0x3f04f970	0.5194311
72	0xbe56d995	-0.20981438
73	0xbdc3e324	-0.09564808
74	0x3f10b167	0.56520694
75	0x3eca64db	0.39530072
76	0x3f6bed04	0.9215853
77	0x3e274595	0.16335137
78	0xbdb9c8ac	-0.09071478
79	0x3d2bfe74	0.041990712
80	0xbe297f93	-0.16552572
81	0xbeb1a56e	-0.34696525
82	0x3f08e2fb	0.53471345
83	0xbdf8045a	-0.12110205
84	0x3e81352e	0.25235885
85	0x3ee91b15	0.45528474
86	0x3f3918f2	0.7230369
87	0xbdcd81ad	-0.10034499
88	0x3f736d98	0.950891
89	0x3c99864b	0.018740794
90	0xbde481cf	-0.111575715
91	0x3ee28c63	0.44247732
92	0x3f04e6ba	0.5191456
93	0xbcb987f8	-0.022647843
94	0x3e2e0da4	0.16997391
95	0x3f2c9912	0.67421067
96	0x3f72a6c9	0.94785744
97	0xbd8a7915	-0.06761376
98	0x3b9074b8	0.004408445
99	0x3d5a602f	0.053314384
100	0xbdc927fe	-0.09822081
101	0x3e93b16e	0.28846306
102	0xbdc9f979	-0.09862036
103	0xbf1b1a0c	-0.6058662
104	0xbed54b61	-0.41659072
105	0xbef971f5	-0.48719755
106	0x3f21212e	0.62941253
107	0x3dba8f58	0.09109372
108	0xbee022ab	-0.4377645
109	0xbf086c94	-0.5329068
110	0x3efae78b	0.49004778
111	0xbd3071fa	-0.043077447
112	0xbe045eed	-0.12926836
113	0x3ebb837b	0.3662375
114	0xbf02ca5c	-0.51090026
115	0x3bfcfda7	0.0077206674
116	0xbf38ab5b	-0.7213647
117	0xbe0630d0	-0.13104558
118	0x3d374c46	0.044750474
119	0xbeb58fd0	-0.35461283
120	0xbf88b944	-1.0681539
121	0xbfa284b6	-1.269675
122	0xbd4d08ea	-0.05005733
123	0xbf8e8af9	-1.1136161
124	0xbde6d78f	-0.11271583
125	0x3e49b2fa	0.1969718
126	0x3ec25e95	0.37962785
127	0x3f30045b	0.68756646
128	0xbeb9526d	-0.36195698
129	0xbeaa4c86	-0.33261508
130	0xbf97218f	-1.1807116
131	0xbe578a87	-0.21048938
132	0x3ec404bc	0.38284862
133	0xbeecff28	-0.4628842
134	0xbf18c674	-0.59677815
135	0x3f17bf27	0.5927605
136	0xbeaf0c8d	-0.34189263
137	0xbf98b41b	-1.1929964
138	0xbdf53644	-0.11973241
139	0xbf3af3c7	-0.73028225
140	0x3eb17fee	0.34667915
141	0x3dab69ac	0.08369765
142	0xbddc6f03	-0.10763361
143	0xbe12b947	-0.1432849
144	0x3f03463a	0.5127903
145	0x3ecba3d5	0.3977343
146	0xbd999bba	-0.075004056
147	0x3eac507c	0.33655155
148	0x3e41f334	0.18940431
149	0x3f3d5369	0.739554
150	0x3e2fe494	0.1717704
151	0xbf13b32b	-0.57695264
152	0x3e48fa4a	0.19626728
153	0x3f43c04b	0.7646529
154	0x3edda6c4	0.43291295
155	0x3e83d69f	0.2574968
156	0xbd9385db	-0.07203265
157	0x3e9c6920	0.30548954
158	0x3f0a9b3b	0.5414311
159	0x3f8e7679	1.1129905
160	0x3f425e27	0.75924915
161	0x3d8b29c7	0.06795078
162	0x3e8de5dd	0.27714434
163	0x3eebd4d9	0.46060827
164	0xbdfc50bb	-0.123200856
165	0x3db0de60	0.08636165
166	0xbd3695bf	-0.044576403
167	0x3e167761	0.14693977
168	0xbeed4ad4	-0.46346152
169	0xbf320b3f	-0.6954841
170	0x3d92395e	0.07139848
171	0xbe82352e	-0.25431198
172	0xbe51e0f7	-0.20495974
173	0x3f1acb09	0.6046606
174	0x3ee536c2	0.4476834
175	0x3df817a0	0.12113881
176	0xbe806da2	-0.25083643
177	0x3f05939a	0.5217835
178	0xbefc82ae	-0.4931845
179	0xbe8947ab	-0.2681249
180	0x3efa06ed	0.4883341
181	0xbe14c957	-0.1452993
182	0x3df3c857	0.11903446
183	0x3ebd2081	0.3693886
184	0xbf48860a	-0.7832953
185	0xbf462297	-0.7739653
186	0x3eafed95	0.34360948
187	0xbec47848	-0.38373017
188	0xbe12c9ae	-0.14334747
189	0xbe9b6f14	-0.30358183
190	0x3e2454b2	0.16047934
191	0x3eed149f	0.46304795
192	0x3dfe63d8	0.124213874
193	0xbe1a2fc6	-0.15057287
194	0xbfaeb31a	-1.3648407
195	0xbf416043	-0.7553751
196	0xbf8c1052	-1.094248
197	0x3ddebd6a	0.108759716
198	0xbe0e5ed8	-0.13903368
199	0xbed2f4e1	-0.41202453

sequential_1/dense_5/MatMul f4 [4, 10]
0	0xbea0e80d	-0.3142704
1	0x3f282770	0.65685177
2	0x3ea31690	0.3185315
3	0xbe82d4a9	-0.25552872
4	0xbf80c35d	-1.005962
5	0xbf0b1bf9	-0.5433956
6	0xbf198053	-0.5996143
7	0x3f820ae6	1.0159576
8	0x3f1d1ac5	0.6136897
9	0xbeedc4c7	-0.46439192
10	0x3f833a0a	1.0252087
11	0xbf0f4b5f	-0.5597438
12	0xbeb7eef5	-0.35924497
13	0x3f88c237	1.068427
14	0x3f338502	0.7012483
15	0xbf7e3017	-0.9929213
16	0xbe9bb21f	-0.30409333
17	0x3e6c2528	0.23061049
18	0xbe3d550b	-0.18489473
19	0xbcce1f96	-0.025161546
20	0x3de94811	0.11390699
21	0x3eba5ff1	0.36401322
22	0xbfa77d81	-1.3085176
23	0xbe906c93	-0.28207836
24	0xbeae7c9c	-0.34079444
25	0x3f6660b0	0.89991283
26	0x3fc88a72	1.566725
27	0xbf224f54	-0.63402295
28	0xbfa135bc	-1.2594523
29	0x3e0e3466	0.13887176
30	0xbf90527b	-1.1275171
31	0xc0068db5	-2.102399
32	0x3f23b374	0.639457
33	0xbf53c8a9	-0.8272806
34	0xbf679ee7	-0.9047684
35	0x3f65f7bc	0.8983114
36	0xbf24c0e3	-0.6435682
37	0xbf755b6a	-0.9584261
38	0x3e74c079	0.23901547
39	0x3f8bc03b	1.0918039
