model/keypoint_classifier/keypoint_classifier.tflite (tflite, 6544 bytes, 6 tensors)

sequential/dense/BiasAdd/ReadVariableOp f4 [20]
0	0xbea800c3	-0.3281308
1	0xbc849333	-0.016183471
2	0xbf1704ba	-0.5899159
3	0xbf36863c	-0.71298575
4	0xbf3bf395	-0.7341855
5	0xbf5b7fcc	-0.8574188
6	0xbe635af6	-0.22202668
7	0xbeab2614	-0.3342749
8	0xbf89b8ae	-1.0759485
9	0xbe081012	-0.1328738
10	0xbea2c962	-0.31794268
11	0xbee74ffe	-0.45178217
12	0xbf62c60e	-0.8858346
13	0xbf064163	-0.5244352
14	0xbf29b1ca	-0.6628691
15	0x3d0da48b	0.03458075
16	0xbe44e143	-0.19226556
17	0xbee84864	-0.4536773
18	0xbf058c0b	-0.52166814
19	0xbf283561	-0.6570645

sequential/dense_2/BiasAdd/ReadVariableOp f4 [4]
0	0xbd05e3ff	-0.032688137
1	0xbea48c80	-0.32138443
2	0x3f236cd5	0.6383794
3	0xbe1d52e7	-0.15363656

sequential/dense_1/BiasAdd/ReadVariableOp f4 [10]
0	0x3e325325	0.1741453
1	0xbe8ec7c7	-0.27886793
2	0xbe02a04c	-0.12756461
3	0x3e149951	0.1451161
4	0x3e8357f0	0.25653028
5	0xbe3bf2d0	-0.18354344
6	0x3f1429a5	0.57876045
7	0x3d22ecf2	0.03977675
8	0x3f3ca254	0.73685193
9	0x3f315544	0.6927073

sequential/dense/MatMul f4 [20, 42]
0	0xbe76d54e	-0.24104807
1	0x3e32d394	0.17463523
2	0xbc82304f	-0.015892176
3	0xbe045f3f	-0.12926959
4	0xbce8a288	-0.028397813
5	0xbe3d2bd0	-0.18473744
6	0xbe917a03	-0.284134
7	0xbec2f222	-0.38075358
8	0xbf03058c	-0.5118034
9	0xbeb74368	-0.35793614
10	0x3d7e17d5	0.062034447
11	0x3e329e65	0.17443235
12	0x3c053573	0.008130419
13	0x3d8fbc1b	0.070183
14	0xbc64e1df	-0.0139698675
15	0xbd5bf418	-0.053699583
16	0xbbde6080	-0.006786406
17	0xbcc14d36	-0.023596387
18	0xbe01ad73	-0.12663822
19	0x3e54777b	0.20748703
20	0x3dce3e63	0.10070493
21	0xbdbc6c83	-0.092003845
22	0x3dc71109	0.09720046
23	0xbb8c0b7c	-0.00427383
24	0x3ddb5f07	0.107114844
25	0x3f261f7c	0.6489179
26	0xbd438283	-0.047731888
27	0x3e51e15d	0.20496126
28	0x3c6125f5	0.01374196
29	0xbe63943f	-0.2222452
30	0x3e1090d4	0.14117748
31	0x3dac5517	0.08414667
32	0x3edd52c2	0.43227202
33	0x3f09a938	0.5377383
34	0xbe2570ba	-0.16156283
35	0x3e3febfd	0.18742366
36	0x3b9676a9	0.004591782
37	0xbe35c6dc	-0.1775164
38	0x3e5c181f	0.21493576
39	0xbd9677df	-0.07347082
40	0x3eefd700	0.4684372
41	0x3f28398d	0.65712816
42	0xbe275c69	-0.16343845
43	0xbd000680	-0.0312562
44	0x3f77e03a	0.9682652
45	0xbedf656c	-0.43632066
46	0x3f5473fd	0.82989484
47	0xbf38c0b9	-0.7216907
48	0x3f3cb652	0.737157
49	0xbe98145b	-0.2970303
50	0x3ed485ae	0.4150824
51	0xbe810e2e	-0.2520613
52	0x3f0e0c87	0.55487865
53	0x3b564fff	0.003270149
54	0x3e322fbe	0.17401025
55	0xbe403a15	-0.18772157
56	0xbe870f88	-0.26379037
57	0xbc005b5c	-0.007834282
58	0xbee5ce2b	-0.44883856
59	0x3cfbc72a	0.030734617
60	0x3ec352b9	0.3814905
61	0xbe850cdc	-0.25986373
62	0x3ed1f1f4	0.41004908
63	0xbce9edef	-0.028555838
64	0x3cd7f1ba	0.026360381
65	0x3da6e648	0.081493914
66	0xbd89aa73	-0.06721964
67	0x3e0a93b5	0.13532908
68	0x3f216af6	0.63053834
69	0xbe5dfae5	-0.2167774
70	0x3e00be31	0.12572552
71	0xbc9944f6	-0.018709641
72	0xbb95dfef	-0.004573814
73	0x3d497816	0.04918679
74	0xbe0e5991	-0.13901354
75	0x3e315df7	0.17321001
76	0x3f3946c2	0.7237359
77	0xbe446826	-0.19180354
78	0x3e968a5c	0.29402435
79	0xbe35e42f	-0.17762826
80	0x3eaf8093	0.34277782
81	0x3dc54e5b	0.09634086
82	0xbd944375	-0.07239429
83	0x3e321f9c	0.1739487
84	0xbdb16756	-0.08662288
85	0x3d9dcbf0	0.077049136
86	0x3f49c840	0.7882118
87	0x3f0290fb	0.5100247
88	0x3ef43c79	0.47702387
89	0x3da9ffe8	0.08300763
90	0x3ee8036a	0.45315105
91	0x3d56e09f	0.05246031
92	0x3f364ff1	0.7121573
93	0x3c68d593	0.014211076
94	0xbd8fd85e	-0.07023691
95	0xbc5041ba	-0.012710983
96	0xbd0a4bb6	-0.03376361
97	0x3d790418	0.06079492
98	0xbd1f6eab	-0.0389239
99	0x3ceb7179	0.028740631
100	0xbd2a6375	-0.041598756
101	0xbcf3abdd	-0.029745037
102	0x3dd7fe44	0.10546544
103	0xbe0321c2	-0.12805846
104	0xbd80cdf7	-0.06289285
105	0x3bbcab68	0.005757738
106	0xbe45e2a2	-0.19324735
107	0xbc89e614	-0.016833343
108	0xbe86046b	-0.26175246
109	0xbe5b71cc	-0.21430129
110	0x3e3186ce	0.1733658
111	0xbd736668	-0.059423834
112	0xbe318530	-0.17335963
113	0x3c8900ca	0.016724009
114	0xbe87a9fd	-0.26496878
115	0x3d3dcb6f	0.046336588
116	0xbf0371a7	-0.51345295
117	0xbdec7b09	-0.115469046
118	0x3eae9814	0.341004
119	0xbdbabc5e	-0.091179594
120	0xbe05539e	-0.13020179
121	0xbc41c233	-0.011826086
122	0xbf01eefb	-0.5075528
123	0x3dc31aad	0.095265724
124	0xbf3d5d4e	-0.73970497
125	0x3da7cef0	0.08193767
126	0xbe92beae	-0.28661102
127	0xbde7130c	-0.1128293
128	0xbf10bb43	-0.5653574
129	0xbea357bf	-0.31902882
130	0xbd974d95	-0.073878445
131	0xbe2bbe2a	-0.1677176
132	0xbe03e7ba	-0.12881365
133	0xbeb2b6f5	-0.3490521
134	0x3df03293	0.11728396
135	0xbe8fccf9	-0.2808607
136	0x3e19c7cd	0.15017624
137	0xbd9ca1b3	-0.07648029
138	0xbccee57e	-0.025255915
139	0xbb5f7cf0	-0.0034101568
140	0xbd5d77b2	-0.05406923
141	0x3e135a98	0.14390028
142	0x3af48593	0.0018655531
143	0x3de09666	0.10966186
144	0x3e2e0942	0.16995719
145	0xbd584102	-0.05279637
146	0x3dc60eef	0.09670817
147	0xbca3d466	-0.01999874
148	0xbd12be75	-0.035826165
149	0x3d3d6ba5	0.046245236
150	0xbdf21674	-0.11820689
151	0x3d90f489	0.070778914
152	0x3ca93c6f	0.0206587
153	0xbe22eb45	-0.1591006
154	0x3d9bbe3a	0.07604642
155	0xbdf7b336	-0.12094729
156	0xba8a0592	-0.0010530225
157	0x3cb45db5	0.02201734
158	0xbd3efb6a	-0.046626486
159	0x3d4e9615	0.050436098
160	0xbe05ef12	-0.1307948
161	0xbecda17e	-0.4016227
162	0xbd466f77	-0.048446145
163	0xbef9d956	-0.48798627
164	0x3d0370eb	0.03209011
165	0xbd72f55f	-0.059316035
166	0xbd2e731c	-0.042590246
167	0x3cf8187d	0.030285114
168	0x3d27aff0	0.04093927
169	0x3d45d1b0	0.048295677
170	0x3f79ea11	0.9762278
171	0xbd32218a	-0.043489017
172	0x3f191701	0.59800726
173	0xbe6dcf60	-0.23223639
174	0x3f209cf5	0.627395
175	0xbb79a2f1	-0.0038091505
176	0x3ed21385	0.41030517
177	0xbef9bafe	-0.48775476
178	0x3e380456	0.17970404
179	0x3ec96def	0.39341685
180	0x3c685289	0.014179834
181	0x3eb0f353	0.34560642
182	0xbeb03c56	-0.34421033
183	0x3e6dd30c	0.23225039
184	0xbeca7721	-0.39544013
185	0x3e1d582f	0.1536567
186	0x3e88bb58	0.26705432
187	0x3efe1f03	0.49633035
188	0x3da63d51	0.08117164
189	0xbe1e5e6a	-0.15465704
190	0x3e2f14bb	0.17097752
191	0x3cf06fab	0.029350122
192	0x3deb6e6f	0.11495673
193	0x3e046126	0.12927684
194	0x3e5abdc2	0.2136145
195	0x3e3376bf	0.17525767
196	0x3e743471	0.2384813
197	0xbde4c5fb	-0.11170574
198	0x3e806704	0.25078595
199	0xbd3d2e07	-0.046186473
200	0x3e815f84	0.25268185
201	0xba04d21f	-0.0005066711
202	0x3e786f9d	0.24261327
203	0xbe17da10	-0.14829278
204	0x3e429f0c	0.19005984
205	0xbdcadb2c	-0.09905085
206	0x3e51cba7	0.20487843
207	0xbe85ec7a	-0.2615698
208	0x3e1fcede	0.15606257
209	0xbe30f8d4	-0.1728242
210	0x3d1602d0	0.036623776
211	0xbe940a9b	-0.2891434
212	0x3e16226b	0.14661567
213	0xbdb8fae2	-0.09032227
214	0x3e4ece0c	0.20195788
215	0xbe2748b9	-0.16336335
216	0x3ecb40b3	0.396978
217	0xbf139561	-0.5764981
218	0x3f136b0a	0.57585204
219	0xbe9882c1	-0.29787257
220	0xbe2629fc	-0.16226953
221	0xbd8b50c2	-0.06802513
222	0xbc9b3bc9	-0.018949406
223	0xbdd6317c	-0.10458657
224	0xbc4954c8	-0.01228828
225	0x3bb9fdf9	0.005676028
226	0xbd8efbd6	-0.06981628
227	0x3e1c61cf	0.15271686
228	0xbdae84f5	-0.08521453
229	0x3b36d640	0.00278987
230	0xbb5443a2	-0.0032388945
231	0xbe76e445	-0.24110515
232	0x3e50a298	0.20374525
233	0xbea9ba50	-0.33149958
234	0x3ef4f3a3	0.4784213
235	0xbe91c074	-0.28467143
236	0xbcf8da55	-0.030377546
237	0x3b3de11b	0.0028973285
238	0x3c5a533c	0.013325509
239	0xbe17b163	-0.14813761
240	0x3e5ba6f9	0.21450414
241	0xbd831946	-0.06401305
242	0x3e9dd982	0.30830008
243	0xbe7ca19d	-0.24671026
244	0xba35ae8c	-0.00069306116
245	0x3e43a42e	0.19105598
246	0xbd0a007e	-0.033691876
247	0x3e29f21e	0.16596267
248	0xbe4dd071	-0.20099045
249	0x3e2de818	0.16983068
250	0xbea8e93f	-0.32990453
251	0x3de52cc9	0.11190183
252	0x3db92df8	0.09041971
253	0xbd98d33e	-0.07462166
254	0x3cae132d	0.021249378
255	0x3f11417f	0.56740564

sequential/dense_1/MatMul f4 [10, 20]
0	0xbe95cddf	-0.2925863
1	0xbba8614c	-0.005138552
2	0x3e0c247d	0.13685794
3	0x3d93b346	0.07211928
4	0x3cfb0921	0.030644001
5	0xbdbc95e7	-0.09208279
6	0xbf02a46b	-0.5103213
7	0xbe821894	-0.25409377
8	0xbe7300cf	-0.23730777
9	0x3e85d664	0.2614013
10	0xbf0db612	-0.5535594
11	0x3f696238	0.91165495
12	0xbe704e6e	-0.23467419
13	0x3e067882	0.13131908
14	0xbe2cf276	-0.16889367
15	0x3dca790b	0.09886368
16	0xbe738420	-0.2378087
17	0xbe7475e1	-0.23873092
18	0xbd364eb2	-0.044508643
19	0xbf0190a9	-0.5061136
20	0xbf051b44	-0.5199473
21	0xbe258677	-0.16164576
22	0x3dbbb86b	0.09166034
23	0x3d9082bb	0.07056185
24	0xbe233720	-0.15938997
25	0x3dbb5225	0.09146527
26	0xbf799197	-0.9748778
27	0x3f24442c	0.6416652
28	0xbe994ccf	-0.29941413
29	0x3e4b2ad5	0.19840558
30	0x3ec8e79d	0.39239207
31	0x3ee98dc0	0.4561596
32	0xbe5c2fb6	-0.21502575
33	0x3edd017f	0.43165204
34	0xbefea957	-0.4973857
35	0xbf08f959	-0.53505474
36	0x3e9e4238	0.30909896
37	0xbe856655	-0.26054636
38	0xbf09143d	-0.53546506
39	0x3ef20126	0.472665
40	0x3f090061	0.53516203
41	0x3c204f27	0.009784496
42	0xbec214dc	-0.3790654
43	0x3db0aeca	0.08627088
44	0x3cf63477	0.030054314
45	0xbd315bf7	-0.043300595
46	0xbe54d75d	-0.2078528
47	0x3f6a7ec4	0.9159968
48	0xbeb250be	-0.34827226
49	0x3efa0956	0.48835248
50	0xbf1e3e51	-0.6181384
51	0xbf6186d7	-0.88096374
52	0xbe26a493	-0.16273718
53	0x3edc2b74	0.43001902
54	0xbe6d32b3	-0.23163871
55	0x3cd2d9b0	0.025738567
56	0x3e9e722f	0.3094649
57	0xbf08c3f1	-0.5342398
58	0xbe22bb9d	-0.15891881
59	0x3f0e04f9	0.5547634
60	0x3e9ff392	0.31240517
61	0xbd63d94b	-0.05562715
62	0x3ef4bc1b	0.47799763
63	0xbeb840a2	-0.3598681
64	0x3e325586	0.17415437
65	0x3e0f1395	0.13972314
66	0x3d862dd1	0.065517075
67	0xbd3bcc65	-0.045849223
68	0xbd8977f1	-0.0671233
69	0x3d3d8d90	0.046277583
70	0x3f522103	0.8208162
71	0x3eda8e2f	0.42686602
72	0xbeeb05a1	-0.45902732
73	0x3ea4d471	0.3219333
74	0xbf2016aa	-0.6253458
75	0x3d2363a4	0.039889947
76	0xbf15bc54	-0.5849049
77	0x3ebf5507	0.37369558
78	0xbe86b7a4	-0.26311982
79	0x3f12df40	0.573719
80	0x3f4c76fa	0.79869044
81	0x3f28ea7a	0.6598278
82	0x3f94ad95	1.1615473
83	0xbf50a325	-0.8149894
84	0x3f8755f0	1.0573101
85	0x3f98f479	1.1949607
86	0x3fb185ca	1.3868954
87	0x3e050a0b	0.12992112
88	0x3eef1454	0.46695197
89	0x3f3e21da	0.74270403
90	0x3d122caf	0.035687145
91	0x3e320627	0.1738516
92	0x3f1d8d6a	0.61543906
93	0x3f9d257c	1.2277064
94	0x3ed72ff3	0.4202877
95	0x3f96ad66	1.1771667
96	0x3f8daf09	1.1069041
97	0x3f283923	0.65712184
98	0x3e9fad26	0.3118679
99	0x3da79c37	0.081840925
100	0xbdf197e1	-0.11796547
101	0x3edb9626	0.42887992
102	0x3e8dd218	0.2769935
103	0x3f3c85ee	0.7364186
104	0x3f2b622d	0.6694668
105	0x3e617ba7	0.22019826
106	0xbf227b73	-0.6346962
107	0xbc5606c2	-0.013063135
108	0x3f6f0906	0.93373144
109	0xbe2a3653	-0.16622286
110	0xbe39c020	-0.18139696
111	0xbdde0349	-0.1084047
112	0x3f1cb884	0.6121905
113	0x3e059ea3	0.13048796
114	0x3f144623	0.5791952
115	0xbe367c47	-0.17820846
116	0x3e15f0de	0.14642665
117	0xbe91abd2	-0.284514
118	0x3f1a4789	0.60265404
119	0xbd5e20cb	-0.054230493
120	0xbdc86904	-0.09785655
121	0xbf0e6982	-0.5562974
122	0xbd7a41df	-0.061097976
123	0x3ee1412c	0.43995035
124	0x3ec59d04	0.38596356
125	0x3e64ec9c	0.22355884
126	0xbef2bc17	-0.47409126
127	0x3dcd5e4d	0.10027752
128	0x3f05d9e7	0.5228562
129	0xbdfd94a2	-0.12381865
130	0x3e4d2e4e	0.20037195
131	0x3e908f4d	0.2823433
132	0x3f7e6468	0.9937196
133	0xbe48ef62	-0.19622567
134	0x3f9f9ed1	1.2470342
135	0x3e908e22	0.2823344
136	0x3d2fb961	0.0429014
137	0xbe84ad10	-0.25913286
138	0x3f366091	0.712411
139	0x3e6922f1	0.22767235
140	0x3ed8e17d	0.42359534
141	0x3ded49d7	0.115863495
142	0x3f4fd983	0.8119127
143	0x3ec5eb72	0.38656193
144	0xbeef2c2d	-0.4671339
145	0x3ebb6efe	0.36608118
146	0xbe1d9f7e	-0.15392873
147	0x3e950d30	0.29111624
148	0x3f153931	0.5829039
149	0xbe8f9bba	-0.28048497
150	0x3dd05ff0	0.101745486
151	0x3ee40786	0.4453699
152	0x3f6d9a21	0.9281331
153	0x3ef09a84	0.46992886
154	0x3b0428b1	0.0020165856
155	0x3d51a17d	0.051179398
156	0x3e1bfbd9	0.15232791
157	0xbedb6f7b	-0.4285849
158	0x3ea793cf	0.32729957
159	0x3f36a235	0.7134126
160	0xbed1d31a	-0.4098137
161	0x3b8bb597	0.0042635906
162	0xbefb61a5	-0.49097934
163	0xbdeee89e	-0.11665462
164	0xbdb99585	-0.09061722
165	0x3dad74d2	0.08469547
166	0x3f29dd19	0.66352993
167	0xbf962747	-1.1730736
168	0xbd14de23	-0.03634466
169	0x3f0aa82e	0.5416287
170	0xbf8a61e2	-1.0811121
171	0xbfaf8a91	-1.3714162
172	0xbd171ebf	-0.036894556
173	0xbf06b554	-0.52620435
174	0x3e016f70	0.12640166
175	0x3ebbeba0	0.36703205
176	0x3dd97843	0.10618641
177	0xbf2658ef	-0.6497945
178	0x3f187427	0.59552234
179	0xbf3572a9	-0.7087808
180	0xbf0bcb2e	-0.546069
181	0x3f037eeb	0.51365536
182	0xbddb9733	-0.10722198
183	0x3ec1310e	0.37732738
184	0x3e0b9dae	0.13634369
185	0x3db81d29	0.08989937
186	0x3eec0081	0.46094134
187	0xbf0bc8bf	-0.5460319
188	0x3f0dfe14	0.5546582
189	0x3e22633c	0.15858167
190	0xbf21c7a2	-0.6319524
191	0xbeab6f78	-0.3348348
192	0x3dbbba5c	0.091664046
193	0xbf1a7e29	-0.60348755
194	0x3ec66d9c	0.387555
195	0x3f29acee	0.66279495
196	0xbe1ab65b	-0.15108626
197	0xbf4a4bde	-0.79022014
198	0x3f4db8c1	0.8036004
199	0xbea581ea	-0.3232568

sequential/dense_2/MatMul f4 [4, 10]
0	0x3e93d689	0.28874615
1	0xbe263c3e	-0.16233918
2	0x3ed97861	0.42474654
3	0x3f2b38a2	0.6688329
4	0x3f573173	0.8405983
5	0xbf0564b8	-0.5210681
6	0xbf8cfd81	-1.1014863
7	0x3efd600f	0.4948735
8	0xbdf0b92a	-0.11754067
9	0xbf57a490	-0.8423548
10	0xbf723a74	-0.9462044
11	0xbf83fe00	-1.031189
12	0xbf3d209c	-0.7387788
13	0xbe9646d5	-0.29350916
14	0x3e442b68	0.19157183
15	0x3f811b51	1.0086461
16	0x3f607747	0.87682
17	0x3f57ea07	0.8434147
18	0xbe655964	-0.22397381
19	0xbc8db946	-0.01730026
20	0xbecb1f4c	-0.39672315
21	0x3e1cbf78	0.15307415
22	0xbf6e587f	-0.93103784
23	0xbed17849	-0.40912083
24	0xbd6c7017	-0.057724085
25	0xbead3e57	-0.33836624
26	0xbe98b33d	-0.29824248
27	0xbf91fd1c	-1.1405368
28	0x3f98810f	1.1914386
29	0x3f35fa35	0.7108491
30	0x3f3f7ff7	0.74804634
31	0x3e9f1912	0.31073815
32	0x3f277b2a	0.6542231
33	0x3f129d02	0.57270825
34	0xbff15b69	-1.8856021
35	0xbdfa34a8	-0.12217075
36	0xbe08ce8b	-0.1336004
37	0x3f250d5a	0.644735
38	0xbee1c74f	-0.44097373
39	0xbf77868f	-0.96689695
