model/keypoint_classifier/keypoint_classifier.tflite (tflite, 6632 bytes, 6 tensors)

sequential/dense/BiasAdd/ReadVariableOp f4 [20]
0	0xbf3caf73	-0.73705214
1	0xbf2bc182	-0.67092144
2	0xbf053d37	-0.5204653
3	0xbf46f614	-0.77719235
4	0xbf16f842	-0.5897256
5	0xbf0f5a5b	-0.55997247
6	0xbeda21ff	-0.42604062
7	0xbf1832f0	-0.59452724
8	0xbee9861e	-0.45610136
9	0xbe03cf8a	-0.12872139
10	0xbf5baeca	-0.8581358
11	0x3e308e4c	0.17241782
12	0xbf887448	-1.0660486
13	0xbf5ecc9d	-0.87030965
14	0xbeef581a	-0.46746904
15	0xbf27ade0	-0.6549969
16	0xbf2e50f4	-0.68092275
17	0xbf314ae2	-0.6925489
18	0xbf93a14e	-1.1533601
19	0xbeb29c18	-0.34884715

sequential/dense_2/BiasAdd/ReadVariableOp f4 [6]
0	0xbf097dec	-0.53707767
1	0xbed19320	-0.4093256
2	0x3f25e75c	0.6480615
3	0xbe1f70e5	-0.1557041
4	0x3e95a572	0.29227787
5	0x3e1e5157	0.15460716

sequential/dense_1/BiasAdd/ReadVariableOp f4 [10]
0	0x3e0af144	0.13568598
1	0x3f616af2	0.8805381
2	0x3e9fc7dc	0.31207168
3	0xbca7882f	-0.02045068
4	0x3f35b476	0.70978487
5	0x3f01f3bc	0.50762534
6	0x3f03c727	0.5147576
7	0xbea25a4e	-0.31709522
8	0x3d63531f	0.055499192
9	0x3eaaef28	0.33385587

sequential/dense/MatMul f4 [20, 42]
0	0xbdfbe5a8	-0.12299663
1	0x3dc6780c	0.09690866
2	0xbe7f36e0	-0.24923277
3	0x3eafb870	0.34320402
4	0xbde9cffa	-0.114166215
5	0x3d715016	0.058914267
6	0xbd24330f	-0.040087756
7	0xbec580d9	-0.38574865
8	0xbc1243f7	-0.008927337
9	0xbe957ec0	-0.29198265
10	0xbf12db24	-0.5736563
11	0x3c7ec8ee	0.015550835
12	0xbd37f1c2	-0.044908293
13	0xbddff9c0	-0.10936308
14	0x3e2ffbf7	0.1718596
15	0x3d903d7d	0.07042978
16	0x3e400558	0.18752038
17	0x3d0e48a8	0.03473726
18	0xbf37b5c4	-0.7176173
19	0xbddb50b8	-0.10708755
20	0xbd811ebd	-0.06304691
21	0xbdc6d680	-0.097088814
22	0x3e322d51	0.174001
23	0x3dceaa3e	0.10091065
24	0x3e0e5101	0.13898088
25	0x3e084678	0.13308132
26	0xbf0b7ef1	-0.5449057
27	0xbe3f2783	-0.18667416
28	0xbc5ae871	-0.013361082
29	0xbe2357ab	-0.15951411
30	0x3e6458bd	0.22299476
31	0x3df17f83	0.11791899
32	0x3e4e1154	0.20123798
33	0x3e121366	0.14265212
34	0xbf38e075	-0.72217494
35	0xbf06f591	-0.52718455
36	0xbd35b836	-0.04436513
37	0xbe94b5f8	-0.2904508
38	0x3e187f52	0.14892319
39	0x3d739921	0.059472207
40	0x3df60efd	0.120145775
41	0x3e0d59e3	0.1380382
42	0x3e64dcf8	0.22349918
43	0xbe1fa4d7	-0.15590225
44	0x3f12b376	0.57305086
45	0x3e826984	0.25471127
46	0x3bc4852f	0.005997322
47	0x3daf474b	0.0855852
48	0xbe54de50	-0.2078793
49	0xbe459b8c	-0.19297618
50	0xbec199c3	-0.37812623
51	0xbd261583	-0.04054786
52	0x3dff2569	0.12458307
53	0x3e01c9c8	0.1267463
54	0xbd0307cb	-0.031989854
55	0x3dc88dc1	0.097926624
56	0xbd8cc65f	-0.06873774
57	0x3d1f74c2	0.03892971
58	0xbde3b3c3	-0.11118271
59	0x3cb3a7db	0.021930626
60	0x3daf342b	0.08554872
61	0x3e48b136	0.1959885
62	0x3c621f36	0.013801387
63	0xbc700bda	-0.014651263
64	0x3ec4ac3a	0.38412648
65	0xbe28eb15	-0.16495927
66	0x3f05c444	0.522526
67	0xbc08041e	-0.008301763
68	0xbd028478	-0.031864613
69	0x3e3c3b6a	0.1838204
70	0x3d1d2d59	0.038373325
71	0xbddb7087	-0.10714822
72	0x3ee4d346	0.4469244
73	0xbdd9d7a9	-0.10636837
74	0x3f36e3e7	0.714415
75	0xbcc61da0	-0.024184048
76	0xbe4cf79d	-0.20016332
77	0x3e5191bf	0.20465754
78	0xbdc00c1f	-0.09377312
79	0x3d0b26dc	0.033972606
80	0x3e3338e1	0.17502166
81	0xbdc2ab87	-0.095053725
82	0x3f0756dc	0.5286691
83	0x3db2c4fd	0.08728979
84	0x3e982a6a	0.2971986
85	0xbe51a8de	-0.20474574
86	0x3f86b93c	1.0525279
87	0x3e800541	0.25004008
88	0x3f424248	0.7588239
89	0x3e99cecd	0.3004059
90	0x3f18ea9d	0.5973299
91	0x3e7d1480	0.24714851
92	0x3f128d9c	0.5724733
93	0xbca4afd1	-0.020103367
94	0x3ef8db5e	0.48604864
95	0x3ef738af	0.48285434
96	0x3e7c7c9a	0.24656907
97	0x3df9ee6d	0.12203679
98	0xbddf7f4f	-0.10912954
99	0x3d7610f8	0.060074776
100	0xbe8b174e	-0.27166218
101	0x3d90d8a2	0.070725694
102	0x3eebe223	0.46070966
103	0x3eb7e10f	0.35913894
104	0x3e651c77	0.2237414
105	0x3cccc24a	0.024994988
106	0xbe4fdce8	-0.20299113
107	0xbdbbd29d	-0.09171031
108	0xbe5ecd99	-0.21758117
109	0xbde68a6f	-0.11256873
110	0x3e84fb73	0.2597309
111	0x3e35ca25	0.17752893
112	0x3de54c4f	0.11196195
113	0xbd923897	-0.071397
114	0xbe6bf35e	-0.23042056
115	0xbdd008b2	-0.101579085
116	0xbebdfb60	-0.37105846
117	0xbe04b583	-0.12959866
118	0x3ea3585f	0.3190336
119	0xbddcd5ba	-0.107829526
120	0xbcf0ea09	-0.029408472
121	0xbe50df3f	-0.20397662
122	0xbec4159e	-0.38297743
123	0xbe49c51e	-0.197041
124	0xbee9cbc6	-0.4566328
125	0xbe0f14bf	-0.13972758
126	0x3e6380e8	0.22217143
127	0x3e200226	0.1562582
128	0xbf837fdd	-1.0273396
129	0x3ee4468d	0.44585076
130	0xbf7ca5b3	-0.98690337
131	0x3d67c0bc	0.05658029
132	0xbf6d0554	-0.92586255
133	0xbe176596	-0.14784846
134	0xbf85a850	-1.044199
135	0xbe3b30ad	-0.18280287
136	0xbf736240	-0.9507179
137	0xbb1f5065	-0.0024309393
138	0xbf215651	-0.63022333
139	0xbe0899d8	-0.13339937
140	0xbdaeec8f	-0.08541214
141	0x3da9639f	0.08270954
142	0x3dfc3636	0.123150274
143	0x3e079ba3	0.13242964
144	0xbf0e59da	-0.5560585
145	0x3da1158a	0.078654364
146	0xbe9bf21e	-0.30458158
147	0xbdeea127	-0.11651831
148	0x3e4b298b	0.19840066
149	0x3c7b80bb	0.015350516
150	0x3eab1523	0.33414564
151	0x3dabc001	0.08386231
152	0xbeaa85e2	-0.3330527
153	0xbe09295e	-0.13394687
154	0x3d402e61	0.04691923
155	0xbe0781a1	-0.13233043
156	0x3edac2c7	0.42726728
157	0x3d2a8ae6	0.04163637
158	0x3f1e8340	0.6191902
159	0x3e10cc11	0.14140345
160	0x3d383242	0.044969805
161	0xbe7f8d70	-0.24956298
162	0x3e8f5ae2	0.27999026
163	0xbeae54dd	-0.3404912
164	0x3f28c376	0.6592325
165	0x3b4eafac	0.0031537814
166	0x3f179081	0.5920487
167	0x3e071772	0.13192537
168	0x3e7a171c	0.24422878
169	0xbdca72f6	-0.09885208
170	0xbdf49877	-0.11943143
171	0xbe3ed722	-0.18636754
172	0xbe0702da	-0.13184682
173	0xbeb0ace2	-0.345069
174	0xbdea14ab	-0.11429723
175	0xbecd0442	-0.4004231
176	0xbea75295	-0.32680193
177	0xbf607c00	-0.8768921
178	0xbd5d025a	-0.05395732
179	0x3df5b17d	0.11996744
180	0xbcccc006	-0.024993908
181	0xbc8b52ab	-0.017007193
182	0xbc4a4e55	-0.012347777
183	0x3c98f231	0.018670173
184	0xbc08ea0c	-0.008356582
185	0x3c340c62	0.01098928
186	0xbda28886	-0.07936196
187	0x3de61900	0.11235237
188	0x3d5615a0	0.052266717
189	0xbe89dc2d	-0.26925793
190	0x3d2aea2f	0.04172724
191	0x3e0647dc	0.1311335
192	0x3d2cd83c	0.042198405
193	0x3e8fb441	0.2806721
194	0xbd97d78d	-0.0741416
195	0x3e0023ae	0.1251361
196	0x3de0f20f	0.10983669
197	0xbe3854aa	-0.18001047
198	0x3e0d2ae1	0.13785888
199	0x3ea4f610	0.3221898
200	0x3d978aed	0.07399545
201	0x3f6b252b	0.9185359
202	0xbd4bfb75	-0.049800355
203	0xbe8b9a7a	-0.27266294
204	0x3d57b7c6	0.052665494
205	0xbda11eac	-0.07867178
206	0x3dbc7228	0.09201461
207	0x3ebcc8e8	0.3687203
208	0x3cf90d5b	0.030401876
209	0x3f74ebd5	0.9567235
210	0xbe6bd798	-0.23031461
211	0xbe9caa0f	-0.30598494
212	0x3e9baad4	0.3040377
213	0x3f3be442	0.7339517
214	0x3e38dbbb	0.1805257
215	0x3e8fcbd3	0.28085193
216	0x3ec374ad	0.38174954
217	0x3e1dadae	0.15398285
218	0x3f122394	0.5708554
219	0x3e5eb40b	0.21748368
220	0xbcb13186	-0.02163006
221	0xbc8bd828	-0.017070845
222	0x3cb76bd1	0.022390278
223	0xbbb2952b	-0.005449911
224	0x3ccee0b8	0.025253639
225	0xbcd3dffc	-0.02586364
226	0x3d027a39	0.03185484
227	0xbd965cad	-0.07341895
228	0xbd3bc426	-0.04584136
229	0xbd863aa7	-0.06554156
230	0xbd321ef0	-0.043486536
231	0xbcbf5d0a	-0.023359794
232	0xbd24f4fb	-0.040272694
233	0xbd5ff758	-0.054679245
234	0x3dfd257b	0.123606645
235	0xbda2cf18	-0.07949656
236	0x3e11a583	0.14223294
237	0xbd94b67e	-0.0726137
238	0xbe620297	-0.220713
239	0xbb4dc72d	-0.0031399236
240	0xbeea6fad	-0.45788327
241	0xbd69ad4a	-0.057050027
242	0xbe331361	-0.17487861
243	0xbdace4a3	-0.084420465
244	0x3e6b1d7a	0.22960463
245	0x3d39d3b0	0.045367897
246	0xbe9cfc80	-0.30661392
247	0x3d2145f2	0.039373346
248	0xbf052590	-0.5201044
249	0xbc20d701	-0.009816886
250	0xbf4b553c	-0.7942693
251	0xbcf53e23	-0.029936856
252	0xbe41b969	-0.18918385
253	0x3e5e17f0	0.21688819
254	0x3dcc52e8	0.099767506
255	0x3dc15c9f	0.09441494

sequential/dense_1/MatMul f4 [10, 20]
0	0x3f52d0ca	0.82349837
1	0xbdd6e0a4	-0.104920655
2	0x3f815222	1.010319
3	0x3f1b4ec1	0.60667044
4	0x3f0fc573	0.5616066
5	0xbce42ce1	-0.027853431
6	0x3cc9cc67	0.0246336
7	0xbd8a542e	-0.06754337
8	0x3d878b77	0.06618398
9	0x3f8199cc	1.012506
10	0x3f36dd08	0.71431017
11	0x3f41c524	0.7569144
12	0x3de5a08b	0.11212262
13	0xbddcc351	-0.10779441
14	0x3e215769	0.15756
15	0x3f2410a2	0.6408788
16	0x3f524f53	0.8215229
17	0x3d50e662	0.05100096
18	0x3e88a50a	0.26688415
19	0x3d29007c	0.041260228
20	0xbd0ba397	-0.03409156
21	0xbb90e620	-0.0044219643
22	0x3eaa98ac	0.33319604
23	0x3da5e6d9	0.08100671
24	0xbf5cf211	-0.86306864
25	0xbeffd23e	-0.4996509
26	0xbfe0bb4f	-1.7557162
27	0xbf1d2235	-0.6138032
28	0x3d4b31ef	0.049608167
29	0xbe9dc65f	-0.30815408
30	0x3e882d45	0.26597038
31	0x3eb504fa	0.3535536
32	0x3ef11f4b	0.47094187
33	0xbf665ed8	-0.8998847
34	0xbf7f4d30	-0.99727154
35	0xbe12a5d4	-0.14321071
36	0x3e933b6c	0.28756273
37	0xbfabd96c	-1.3425727
38	0xbe9b7fb2	-0.3037086
39	0xbfbd460a	-1.4786999
40	0x3f149e15	0.58053714
41	0x3f3405aa	0.7032114
42	0x3f51e571	0.81990725
43	0xbe96e8c3	-0.29474458
44	0x3ed79b74	0.4211079
45	0x3fa192fb	1.262298
46	0x3ba10f77	0.0049151736
47	0x3f4b6efe	0.79466236
48	0x3f1435c0	0.57894516
49	0xbe5949e9	-0.212196
50	0x3f522374	0.8208535
51	0x3f41b231	0.75662524
52	0x3f780984	0.9688952
53	0x3de69614	0.11259094
54	0x3f6babaf	0.92058843
55	0x3efc2757	0.49248764
56	0xbdc6afed	-0.09701524
57	0x3b2cec8b	0.0026386108
58	0x3e221759	0.15829219
59	0xbbfdd6b7	-0.0077465433
60	0xbf1523e5	-0.58257896
61	0x3d35a143	0.044343244
62	0x3e2f89d6	0.17142424
63	0x3d3d6862	0.046242125
64	0x3e83031d	0.25588313
65	0x3e86cf52	0.26330048
66	0x3f5ae873	0.8551094
67	0x3d9c78e1	0.07640243
68	0x3da7a377	0.08185475
69	0x3edff4d1	0.43741468
70	0xbf0ce2da	-0.5503365
71	0x3e2f8d9a	0.1714386
72	0xbccb2934	-0.02479992
73	0x3e302de0	0.17205
74	0xbf727585	-0.9471057
75	0x3e54759e	0.20747992
76	0x3d4af2f3	0.0495481
77	0x3f4f428e	0.8096093
78	0x3ed5f8f5	0.41791502
79	0x3f744cc3	0.9542963
80	0x3f948b37	1.1604985
81	0xbe903677	-0.28166553
82	0x3e94a960	0.29035473
83	0x3f028ab5	0.509929
84	0xbdc7d4ba	-0.09757371
85	0xbecf350e	-0.40470165
86	0xba1846ae	-0.0005808872
87	0xbe3a256a	-0.18178335
88	0xbedf5ac8	-0.43623948
89	0x3f06773e	0.525257
90	0x3f0e9e6d	0.5571049
91	0x3ef21ef3	0.47289237
92	0x3cdede65	0.027205655
93	0xbec1bd20	-0.37839603
94	0xbe6e7e54	-0.23290378
95	0x3d7ac943	0.061227094
96	0x3f6d93a8	0.9280343
97	0xbd0b167b	-0.033956986
98	0x3f396cd8	0.7243171
99	0xbd902f03	-0.07040217
100	0xbe952e61	-0.29136947
101	0x3e19ec7d	0.1503162
102	0xbe0a6dd1	-0.13518454
103	0x3d10a8cb	0.035317224
104	0x3f1d0cb7	0.61347526
105	0x3e01d03a	0.12677088
106	0x3ec16f07	0.3778002
107	0x3dd59bae	0.10430084
108	0x3ea9d9ac	0.33173883
109	0x3fb42296	1.4073055
110	0xbe6c977d	-0.23104663
111	0x3d9c13f5	0.07620994
112	0x3e4a780a	0.19772354
113	0xbf062785	-0.5240405
114	0x3f1e5460	0.61847496
115	0x3f560929	0.8360773
116	0x3d6c7ddc	0.057737216
117	0x3e662e19	0.22478522
118	0x3ea69865	0.32538143
119	0x3de694ef	0.112588756
120	0x3f12fa28	0.5741296
121	0xbf037dbe	-0.5136374
122	0xbf71faaa	-0.9452311
123	0x3ee070bf	0.43836018
124	0x3e3db953	0.18527727
125	0xbf09708c	-0.5368736
126	0x3ed279c7	0.41108534
127	0xbe7e01a1	-0.24805309
128	0xbeb16de2	-0.34654146
129	0xbf7647c5	-0.9620326
130	0x3f65c759	0.89757305
131	0xbf9bbbda	-1.2166703
132	0xbf1a83af	-0.60357183
133	0x3e7e6c51	0.24846007
134	0xbdf00ddc	-0.117213935
135	0xbf213b26	-0.6298088
136	0x3eef7d6d	0.4677538
137	0x3ebf045c	0.37308013
138	0x3e47a879	0.19497861
139	0x3e5b5b0b	0.21421449
140	0x3ed76ea7	0.4207661
141	0x3ded042a	0.1157306
142	0x3e5c75d1	0.21529318
143	0x3db415e2	0.08793236
144	0x3f1eaacd	0.6197937
145	0x3d5c051a	0.053715803
146	0x3ee090a1	0.43860343
147	0x3d94aa0f	0.072589986
148	0xbdbc2efe	-0.091886505
149	0x3e715c57	0.23570381
150	0x3eebe5dd	0.4607381
151	0x3e90d738	0.282892
152	0x3e189584	0.14900786
153	0x3e337f67	0.17529069
154	0x3ee08d70	0.43857908
155	0xbea76b45	-0.32699028
156	0x3ed621d1	0.41822675
157	0x3ed639a2	0.41840845
158	0x3f212192	0.6294185
159	0x3e9d67c9	0.30743244
160	0xbe415f03	-0.188839
161	0x3f5cbc24	0.8622458
162	0x3ec0e9c1	0.3767834
163	0x3f85a1a5	1.0439955
164	0x3f35fc10	0.7108774
165	0x3f902c7e	1.1263578
166	0x3e28a0cc	0.16467589
167	0x3fa15e45	1.2606894
168	0x3f862606	1.0480354
169	0xbeb6903e	-0.35656923
170	0xbe7ecef9	-0.24883641
171	0x3e171c01	0.14756776
172	0xbe6be12f	-0.2303512
173	0x3fb39fe3	1.4033169
174	0x3f6ed010	0.9328623
175	0xbe36ed77	-0.17864023
176	0x3e87a195	0.26490465
177	0x3dd69902	0.10478403
178	0xbd6d3b15	-0.057917673
179	0x3e042153	0.12903337
180	0x3ea804f1	0.3281627
181	0xbd3a51f3	-0.04548831
182	0xbf2b5fdb	-0.6694314
183	0xbecc2755	-0.39873758
184	0x3cf50fe6	0.029914808
185	0x3e0a8568	0.13527453
186	0x3d9ecc9d	0.07753871
187	0x3da95f88	0.08270174
188	0xbd8652bb	-0.06558748
189	0xbe278194	-0.16358024
190	0xbe853bba	-0.2602213
191	0xbf80e3e0	-1.0069542
192	0x3e9d28f6	0.30695313
193	0x3e002548	0.12514222
194	0x3c839d15	0.016066113
195	0xbefc8bc9	-0.49325398
196	0x3ee09d2d	0.43869916
197	0x3de27f0e	0.1105939
198	0xbe7b7b55	-0.24558766
199	0x3d29c317	0.041445818

sequential/dense_2/MatMul f4 [6, 10]
0	0x3e8715e7	0.26383898
1	0xbf0a3962	-0.5399381
2	0x3ee95c6e	0.4557833
3	0x3effc3bd	0.49954024
4	0xbe6daa6b	-0.2320954
5	0x3f29f59d	0.663904
6	0xbf93974a	-1.1530545
7	0x3e288eab	0.16460674
8	0x3f071548	0.5276685
9	0xbf17f39b	-0.5935609
10	0x3f221bea	0.63323843
11	0xbf3b69a7	-0.7320809
12	0x3f582f5d	0.8444727
13	0xbe7dc927	-0.24783765
14	0x3f097154	0.5368855
15	0xbf57fc87	-0.843697
16	0x3d514a2d	0.05109613
17	0x3ed589a2	0.41706568
18	0xbdae13ba	-0.08499856
19	0x3f3205fc	0.6954038
20	0x3f3c48d1	0.7354861
21	0x3f47fd24	0.78120637
22	0xbf144e10	-0.57931614
23	0xbf4f9644	-0.8108866
24	0x3f837eb4	1.0273042
25	0x3e9cfedc	0.30663192
26	0xbf30434e	-0.688527
27	0xbf08153b	-0.53157395
28	0xbf354cdb	-0.708204
29	0xbf6ee51c	-0.93318343
30	0xbf4de250	-0.8042345
31	0xbef4601b	-0.47729573
32	0xc00a781c	-2.163581
33	0x3f060912	0.5235759
34	0xbe8c424a	-0.27394325
35	0xbf11adef	-0.56906027
36	0x3f379d40	0.7172432
37	0xbe73bc75	-0.2380236
38	0x3e568e20	0.20952654
39	0xbced6318	-0.028977916
40	0xbf79c32f	-0.9756345
41	0x3f7ac257	0.9795279
42	0x3f5f3dfa	0.87203944
43	0xc00e4474	-2.222928
44	0xbf254396	-0.6455625
45	0xbf26f993	-0.6522457
46	0xbf91e16e	-1.1396921
47	0xbfc464b7	-1.5343236
48	0x3f309794	0.6898129
49	0xbf6feb30	-0.9371824
50	0xbea9be1b	-0.3315285
51	0xbf956ff5	-1.1674792
52	0xbf91dddb	-1.139583
53	0x3f2623da	0.64898455
54	0x3ea22dd8	0.316756
55	0x3f124449	0.57135445
56	0xbe8266ec	-0.25469148
57	0x3e07954a	0.13240543
58	0xbff35950	-1.9011631
59	0xbf2a5525	-0.6653617
